models/hex2vec_10_poland_50k/model.pt (torch, 909895 bytes, 6 tensors)

encoder.0.weight f4 [256, 725]
00000000: 839f 12bd a574 16be 555c 8b3b 79a9 f23c
00000010: 06c3 0d3e 65e4 e2bd 73d2 adbd 273d 8b3d
00000020: 4d87 aabd f1b1 5ebd c6c4 5dbe 4616 9dbc
00000030: 1c4f 22be 6af9 bc3c 2388 863c 7a19 0f3e
00000040: 36ed c6bc d444 113e 4c49 90bd 9ad0 59be
00000050: 92dd 04be 9bdd d33c ca88 2e3e e948 9c3a
00000060: d6a7 853c c4db 86be ba14 b0bc b8a7 01be
00000070: 7a87 093d 4476 913d e7b6 bd3d 4d59 663d
00000080: 4e6e 943d 26e7 b43d 696b c5bc 00a4 44bd
00000090: dedf c5bd 2bee 06be f5cb 1f3d 5a01 64bd
000000a0: c6bc 26be 11a0 ffbd d35f 25be f13d 193e
000000b0: 8293 f4bd 5f84 62be a37e 98bd 6e9f 153e
000000c0: 090f 4ebd 9720 1abe 46a6 fdbd 0592 f23c
000000d0: dbe6 53bd d856 9a3b 448a 57be 2b31 42bd
000000e0: 225f 9fbb aadf c43c eb0e 193d d3ba 723c
000000f0: 51f6 b03d 77aa ad3d 4d31 263e 0abd 423e
00000100: ed8d 04bd f892 873d 4c92 eb3c 00ca 073e
00000110: 456c 1b3e c628 2abe 91f7 173d fc5e 0cbe
00000120: 9f77 5e3d 7c1f 73be 77a3 82bd 6b2d 19bc
00000130: 6c7f d7bd 940a b53d 7924 52bd 2693 6e3e
00000140: ac43 9ebd 96d8 28bd 5ecf e03c 6f62 963d
00000150: 1e89 01be 634a d93d b88e 9fbd fff9 4d3d
00000160: d084 9cbc 228c 7cbc 3a11 993d a045 9f3d
00000170: e612 c9bd 4e4d d33d 4b3b b7bd 2ceb 97bc
00000180: fbd8 d2bb 196f 03be 735f 9d3d 22cf 163c
00000190: c5ce 713c 4ad2 0ebd 6186 ee3d 5390 36be
000001a0: 02ef 59be f33b b43c 6ddc 42be d529 e83c
000001b0: 241d c3bd 5369 1b3d 0774 b13b 08a7 a53e
000001c0: 9a87 2f3d 8a79 05be 321a 363e b73a a6bd
000001d0: e7a0 acbc 08a6 a1be 8325 35be 220a acbc
000001e0: 08d9 5bbd 8941 43bd 9c6d eab8 b32d 063e
000001f0: 2cfa 003e f2e2 6abc 129d 15bd 88e6 3bbe
00000200: 56e5 91bd cc32 28be 41cf 0f3e 0408 5a3d
00000210: 6e8c c73d 104c 26be 1b44 84bd 8aa5 993c
00000220: 75a1 09be bb2d 9abd e4f1 acbd c786 12bd
00000230: 4555 ccbd dc6e c83c d85e eebd b89a 10be
00000240: daa5 fc3d b532 3a3d 77c1 bdbd 2d1a 56bd
00000250: 9fb9 863c dddd 8fbd a317 dbbc 8d98 e73c
00000260: 9bd4 a03e e1e7 cabd f7f3 f6bc 8688 263d
00000270: 5e32 0bbe 4e0e 29be 9460 f7bd 4e42 f5bc
00000280: 4c8f 3cbd 0a6d a33d 1a1c 9b3d 4aa7 463e
00000290: a4a3 df3c c8e7 cabd a96b 26bd 8053 76be
000002a0: 0404 adbe d2a6 59be 8d81 05bd ed69 debc
000002b0: 6eff 4c3d ac51 373d 46d1 4fbe f02a 8dbd
000002c0: 670d c73d 650c 1ebe 0795 5bbd a75e f73c
000002d0: 4809 02be afe2 19be f320 ee3d 1f25 fcbd
000002e0: 689e 893e 9eeb b5bc bb55 123d d817 963e
000002f0: baa4 2e3c b8fb 253e 6a0f 4cbc 49a7 793e
00000300: 0885 833d 46c6 093e c5ba 353c 88f8 aabc
00000310: e656 f3bd 07b5 b03d 9dba c1bd 86d5 28bd
00000320: 8471 cf3d 8185 b63d ec9b e13c 6d63 2db9
00000330: 9a7c 953c 1dad 31be c2ce 52bd 4fe0 cf3c
00000340: aef4 9e3d cc96 78bd eb8a abbc cd15 9abc
00000350: 8074 d03d 4e79 9ebe 6249 6dbd 632a 24be
00000360: b7c5 a43d be9d 5dbe fa68 bebd 44a9 783d
00000370: 7c39 0e3d 4521 0d3d 5b9d 69be 6c7b d93c
00000380: ec86 143c a47d 3a3e 3b57 01be a244 90bd
00000390: f90d 42bd 7397 ff3c e329 df3c 0bd7 103c
000003a0: 11f2 35be 1209 07be 4a33 8fbd e522 1f3e
000003b0: c5b4 15bd c99b aabd 2edc 04be 0ded a8bb
000003c0: 245c cbbd 005e 90bc 994c 843c 9030 acbd
000003d0: 908c bbbd 8bed f63d 9e66 89bc 58df eebb
000003e0: b8c5 b1bc bff6 6ebd c8ee dcbd 6345 9cbc
000003f0: ff32 7cbd 0d06 abbd 9348 053d 51fe 34bd
-0.035796653 -0.14692934 0.00425295 0.029621826 0.13843927 -0.11078719 -0.08487406 0.06798773
-0.08326588 -0.054368917 -0.21657094 -0.01917566 -0.1585049 0.023068149 0.016422337 0.13974562
-0.024283033 0.14186412 -0.0704523 -0.21270981 -0.12975147 0.025862506 0.17044368 0.0011923584
0.016315382 -0.26339543 -0.021494258 -0.12661636 0.033576466 0.071026355 0.092634015 0.056237508
0.072476014 0.088331506 -0.024099069 -0.048007965 -0.0966184 -0.13176791 0.039012868 -0.05566535
-0.16282949 -0.12481702 -0.16149835 0.14965035 -0.119421974 -0.22120808 -0.07446029 0.14611599
-0.050307307 -0.15051495 -0.1238523 0.029610643 -0.051733833 0.0047100596 -0.21048838 -0.04741017
-0.0048636356 0.024032433 0.037367743 0.01481505 0.08640731 0.08479779 0.16229744 0.19017425
-0.032361913 0.06619829 0.028756283 0.1326065 0.1517802 -0.16617116 0.037101332 -0.13708109
0.0543133 -0.23742479 -0.06378835 -0.009349207 -0.10522351 0.08839908 -0.051304314 0.2329832
-0.07727751 -0.041222177 0.02744263 0.073429935 -0.12649962 0.10609891 -0.07790893 0.050287243
-0.019106299 -0.01541427 0.07473989 0.07776952 -0.09818058 0.10317479 -0.08946856 -0.018544756
-0.0064345575 -0.12835349 0.07684221 0.009204658 0.01475877 -0.034868516 0.116467245 -0.17828493
-0.2128258 0.022001242 -0.19029398 0.02834026 -0.095270425 0.037942242 0.005415443 0.32353997
0.04285393 -0.13034645 0.1778343 -0.08116668 -0.021072818 -0.31571984 -0.17690091 -0.021000925
-0.053673774 -0.04766992 -0.00011178406 0.1310337 0.12595433 -0.014336335 -0.036526747 -0.1834966
-0.071238205 -0.16425627 0.14043905 0.0532303 0.09743582 -0.16239953 -0.064583026 0.018755693
-0.13440497 -0.07528254 -0.084445745 -0.035773065 -0.09977201 0.024466924 -0.11639184 -0.1412152
0.12336321 0.045458514 -0.09265416 -0.052271057 0.016445933 -0.07024739 -0.02674467 0.028270984
0.31412205 -0.09907509 -0.030145628 0.040657543 -0.13593432 -0.16509363 -0.12078968 -0.029938843
-0.046035096 0.07979782 0.07573719 0.19399753 0.02729971 -0.0990749 -0.040630016 -0.2405529
-0.33792126 -0.21255043 -0.032594252 -0.027150119 0.050048284 0.044755623 -0.20294675 -0.06892955
0.09719353 -0.15434416 -0.05360892 0.030196501 -0.12698853 -0.15027879 0.11627378 -0.12311768
0.26878667 -0.022207078 0.03572629 0.29315066 0.010659391 0.16209304 -0.012454847 0.2438022
0.06421858 0.13454542 0.011091893 -0.020870462 -0.11881809 0.08628278 -0.09459422 -0.041219257
0.10129073 0.089121826 0.02754017 -0.00016535605 0.018247891 -0.17351194 -0.05146671 0.025375513
0.07761513 -0.060690686 -0.020940265 -0.018809224 0.101784706 -0.30951923 -0.05793131 -0.16031794
0.080455236 -0.21642205 -0.092973664 0.0607083 0.03472279 0.034455556 -0.22813933 0.02654811
0.009065371 0.1821199 -0.12630932 -0.07044341 -0.047376607 0.031200146 0.027241653 0.008840333
-0.17768122 -0.13187054 -0.069922045 0.15540655 -0.03654935 -0.08330495 -0.12974617 -0.005155212
-0.09929684 -0.017622948 0.016149806 -0.084077 -0.091576695 0.120570265 -0.016772565 -0.0072898082
-0.021700725 -0.058340784 -0.107877314 -0.019076055 -0.06157207 -0.083507635 0.032539915 -0.044187848

encoder.0.bias f4 [256]
00000000: 23d7 53bd 0ef2 533e aeca 803b ca66 b03c
00000010: 89d4 7f3e e0b7 5cbe 48bb 9e3d 0019 e5bc
00000020: 9cdb 073e 0d74 173d cf71 ab3e defb 3a3e
00000030: dcb6 453e 8320 f53b 4b02 8f3e f35d b93d
00000040: 755b 44bd a30b 983d e136 193e 8268 c43e
00000050: e4fc 583e dd52 f53d 52e9 e23b f8a9 cabe
00000060: 9118 983d 5ad5 0cbb 6d40 5ebe 45e8 f43d
00000070: 24b2 39bc bce4 283e 8381 963e ea06 753e
00000080: b2b2 21be 5e2c a03e 099e 86be b8c4 6d3e
00000090: c29a a43e d9b2 26bc cc05 d0bc a18d a0bd
000000a0: 81ae 19be bb3b 133e cc16 39be 7989 aabc
000000b0: 21ec 5b3e e59b 5d3d 7e6e 473e 6e0f e3bb
000000c0: e416 403e a56b 983c 80c7 9b3e 751f 1a3e
000000d0: f626 8dbd 0c09 07bf c0d9 53bc a1d7 8cbd
000000e0: 9c05 f93d ed8a 833e 8361 663e 2643 563e
000000f0: 15a9 473e 508a 153e c94d 3e3e 6b3b ac3d
00000100: c0e2 b13d 4ae7 393e d4c1 933e 4c49 853e
00000110: 668b 0f3e 9857 c33d b8a9 f83d e4b8 1c3d
00000120: 7440 f03d 9d9f 653e 001b 7c3c 511c 5f3e
00000130: 6478 253d d2d8 36bd 070e 8f3e be34 183e
00000140: b69d 763d 3f59 873d 734f 1b3b 6a22 c5bd
00000150: 38e2 8b3b c6b5 333e 089b f23d ab12 513d
00000160: 8416 b23e 77a7 78bf a500 053e 1fb2 1e3e
00000170: 1640 dd3e 8225 fa3d 3adc 94bd a22f ed3d
00000180: edf4 523e 5f78 50bb b5d6 43bf aa7e c5bc
00000190: f66a 82bc dede e4bc 29f6 303e 985e 333e
000001a0: 1643 9e3e fabc 1d3e f152 7f3c 7784 5e3e
000001b0: b18d 89bd 84d2 323e fdeb a63d 6ad8 e03e
000001c0: 2f0f 633e 6bf6 443e 8c57 5d3e 703e 6f3e
000001d0: e48e 9c3d 0a06 12be 4be1 3dbc ce4c 063d
000001e0: d1d0 a2bc 2caf 02be 2986 353e 1d42 c6be
000001f0: 4add 6f3e f7c7 893e b209 993e 94f5 993e
00000200: 8054 7d3e 9cd4 873e c833 cd3e badc 0f3e
00000210: 4839 873e e598 453e 3ab9 cf3d 5a3e 4f3e
00000220: 550d c5bd 71d6 5d3e e86f dc3c 09db 953d
00000230: 794b 293d 41a5 223e 101f 8a3d 6d3d 07be
00000240: 3734 af3d 0341 c3be 0525 98bd 95ac 623e
00000250: 1bee a6bd 4b79 fd3c 5861 833c 6f35 6b3e
00000260: 4442 433e d9ab babd dfe4 babc 8526 313e
00000270: d93e 17be b877 553e 5acf 4e3e bf5c 133e
00000280: 57c2 e53d 656d 9c3e 7884 993c 27cc 0b3e
00000290: a80e 583d 3c9f 963e 6d15 1b3e fe13 443e
000002a0: d14f 343e ebb7 cf3d 7982 5e3e 1dc0 60bf
000002b0: b761 573e b640 273d 8d96 b2bb a53c 083e
000002c0: 9f9d 733e a003 a53d 8541 003e b903 8c3e
000002d0: ae68 3abd 9463 80be b3af 023e 8949 4f3d
000002e0: 7624 843d cb02 533e 9b25 e2bb 79e5 1b3b
000002f0: b1bd 03bc 6b85 3d3e d99e 623e 2983 79bc
00000300: d1b1 2e3e e4d3 953e ef68 4c3e 1b8e 23be
00000310: be54 a0bd c5be d73e 615a 5a3d ee9a af3d
00000320: d6cf 36be 476d 4c3e 3a3c 753e 23b8 7e3e
00000330: c2b7 08be f9cd 75bf bfc8 9b3e 043f 773e
00000340: 5e7f 043e 01d0 78bc ed94 f7be 0cfa 843d
00000350: b7fa 993e 26c8 4ebe 0144 00be 062d 0c3e
00000360: eaee 633e 1115 573e 6c63 6d3e 1ab6 9cbc
00000370: 0775 5ebb 3391 9c3e 2823 943e 907e 03be
00000380: c446 483e 91fe fc3b a96a bb3e 7d10 a33d
00000390: 2b4f d1be 4faa d73c 51cf 133e f0a2 ea3d
000003a0: 4da1 4b3e 7656 4a3e b538 c23b 1183 0d3e
000003b0: 811c b63d 9df9 a43b 845c 073e 67f2 973d
000003c0: f08e bf3d 1420 0a3e d598 18bd dfd0 333e
000003d0: 1f5e a83d 4c13 083e 9a10 eb3d 3bbf 5b3e
000003e0: f020 c1bd 9b1a 093d 0b56 113e 7951 343d
000003f0: b5db 3dbf 212e bb3c 5f31 7f3e dffb 4e3e
-0.051718842 0.20697805 0.0039304113 0.021533389 0.2498342 -0.21554518 0.07750565 -0.027966022
0.13267368 0.03697591 0.33485267 0.18260142 0.19308037 0.0074806823 0.27931437 0.090511225
-0.047938783 0.074240945 0.14962341 0.38360983 0.2119022 0.119786955 0.0069247866 -0.395828
0.07426561 -0.0021489472 -0.21704264 0.119583644 -0.011333976 0.16493505 0.29395685 0.23928419
-0.15790823 0.3128385 -0.26292446 0.23219573 0.3214932 -0.010174477 -0.02539339 -0.078395136
-0.15007974 0.14378254 -0.18075103 -0.020817505 0.21476795 0.05410375 0.19475743 -0.0069293296
0.18758732 0.018606016 0.30425644 0.15051062 -0.06892197 -0.5274818 -0.012930334 -0.068770654
0.12159273 0.2569193 0.22498135 0.20924053 0.19498093 0.14603543 0.1858436 0.084097706
0.08685827 0.18154636 0.28858817 0.26032484 0.1401802 0.095381916 0.12141746 0.038262263
0.117310435 0.22424169 0.015387297 0.21788146 0.040398017 -0.04464037 0.2794039 0.1486387
0.060209 0.06608819 0.0023698478 -0.096257046 0.0042689107 0.1754981 0.11845976 0.051043194
0.34782803 -0.9713053 0.12988527 0.15497635 0.43212956 0.12214185 -0.072685674 0.11581351
0.20601244 -0.0031810028 -0.7649949 -0.02410825 -0.015920144 -0.027938303 0.17281403 0.17516553
0.30910558 0.1540412 0.01558374 0.21730219 -0.067164786 0.17463118 0.0815048 0.4391511
0.22173761 0.19234626 0.21615428 0.23363662 0.07644442 -0.14260116 -0.011589359 0.03278809
-0.019874962 -0.12762135 0.1772696 -0.38722315 0.23424259 0.26910374 0.2989021 0.30070174
0.24739265 0.26529396 0.40078568 0.14049044 0.2641089 0.19296606 0.10142751 0.20238629
-0.096216835 0.21663834 0.02690883 0.07317168 0.041331742 0.15883352 0.06744206 -0.13207026
0.08554881 -0.38135538 -0.07428936 0.22136147 -0.08150884 0.030941626 0.016037628 0.22969602
0.19068247 -0.091148086 -0.022814212 0.1729985 -0.14770068 0.2084645 0.20196286 0.14390849
0.11218708 0.3055221 0.018739924 0.13652097 0.052748352 0.2941836 0.15144892 0.19148251
0.17608573 0.101425014 0.21729459 -0.8779314 0.21033369 0.040833198 -0.005450076 0.13304384
0.23790596 0.08057332 0.12524994 0.2734659 -0.045509987 -0.25075972 0.12762336 0.050607238
0.06452267 0.20606534 -0.0069014556 0.00237879 -0.008040831 0.18507926 0.22130908 -0.015229025
0.17060019 0.29263222 0.19961904 -0.15972178 -0.07828663 0.42137733 0.05330885 0.08574472
-0.1785272 0.19963561 0.23948756 0.2487493 -0.13351348 -0.96017414 0.30426595 0.24145132
0.12939212 -0.015186311 -0.4835581 0.06493005 0.30074093 -0.20193538 -0.12525941 0.1368905
0.22259107 0.2100413 0.23182458 -0.019129802 -0.0033944265 0.30579528 0.28933072 -0.12841249
0.19558245 0.0077207764 0.36604813 0.07962129 -0.40880713 0.026326327 0.14434554 0.11456859
0.1988575 0.19759545 0.00592717 0.13819529 0.088921554 0.005034639 0.13218886 0.074192815
0.09353435 0.134888 -0.037255127 0.17560147 0.08221077 0.13288611 0.11477776 0.21459667
-0.094301105 0.03347264 0.14192979 0.04402301 -0.7416337 0.022849144 0.24921177 0.20213269

encoder.2.weight f4 [128, 256]
00000000: 3569 7ebd d6f6 4abc 27c7 56bd 4e7f 93bd
00000010: 5ffd 18bd 93c3 80be 3830 fabd 3314 cebd
00000020: f690 6abd 6206 35bd 5fdf 21bd ccbd c1bc
00000030: cf61 8abc 2514 83bd 2890 103b 941e b73c
00000040: e65d 6e3d 5159 663d c970 613c 841a 9abe
00000050: 5636 b43d 016c 6dbb edb6 6abe 69b8 61be
00000060: cd8a b9bc 696a 603d 2fc5 2abe 8424 42be
00000070: cd76 3cbc c53d d03d d601 013e 87b6 403d
00000080: a1e3 44be 233f 5abd 6f18 103c 4d92 093d
00000090: 2478 543d 1ac0 4fbd 1bd4 753d 0f0c 6ebd
000000a0: 25b6 47be aaa8 993c 8165 43be 023b 72bc
000000b0: 597b c83d 8fab e9bc 1dc0 e5bd f5a4 2bbe
000000c0: f06e 81bc 3be9 02bd 96d3 4ebd 914b 703d
000000d0: 4120 88bd 3584 7ebe f442 65be 36dd 253d
000000e0: d5f6 e53d aef7 ee3d cfc5 573c 3834 643d
000000f0: 3dc1 5fbc 8760 04bb 8c79 073c 4c20 38bc
00000100: b975 5fbc 445f 0dbe 2d62 7ebd d2e6 c8bc
00000110: 1b5d 19bd 05dc cdbb d6fc 95bc 1099 843d
00000120: ebed 68bb 39b7 bb3d f316 c6bd fe3c 053d
00000130: c8f6 95bd 9192 58be 8651 e7bd 9ac8 ad3d
00000140: 66b3 aebd 7513 05be ce3c e3bd 48d8 61bb
00000150: 0b60 593d a49f a73c d32d 36bd 2b42 1e3c
00000160: 4eb4 17be 326d 0fbe 60dc f03c 57ae 0fbe
00000170: a459 423d b346 9bbc 9194 663d 6b8e 04be
00000180: 6ebc 2fbd 740f e6bd 4799 89be aae5 f33d
00000190: c9af ecbd bef5 eabd beae 843d cbc2 43be
000001a0: b0bd b93d 8fa2 153d f077 8fbd a7f6 6fbc
000001b0: 6550 65be 36b4 ea3d 5733 75bd e46d 203e
000001c0: 1a37 01be db41 74be 9e0c b43c 7ce5 d53c
000001d0: 2319 a3bd 459b 63be e6bb b73d 0847 653d
000001e0: 2ae5 863d a8cb 1b3e f7fd aabc 9415 88be
000001f0: 2d4b b2bd 5dfc 9e3d 4dbe 74bc b4ba e53d
00000200: c008 393d 057c b7bd 8a3f 943b d6b6 b93d
00000210: 1a4a 00bd 4c78 7a3d cecf e6bb 081e 953d
00000220: 296e e6bd a1de c23d ad33 b23c 318b 563d
00000230: 4e2d cf3a 3904 eabc 27ec 413c 0455 5cbe
00000240: fa93 81bc fdea 70be ac4e b1bd 56ba 6dbc
00000250: d31a 15bd f149 9dbd 311b 95bc ff7c 34bd
00000260: ab39 f53d 6e66 8cbd 840d aebd 138a 7fbc
00000270: ede8 07be 78f0 23bd 1d93 d63d 104f 4c3c
00000280: d540 89bc b59e 523c ffbd 2fbe 1ad0 82be
00000290: d788 d1bd 27f6 f83d 2c75 aebd 304f a0bd
000002a0: 986e 8a3b 0992 0cba 6c77 3fbd 9614 24be
000002b0: adf0 bf3d 926f 9ebc dd1c cebc 2040 14be
000002c0: 1814 033e 6044 58be fdf4 a43c 1353 01bd
000002d0: 8f03 443d 7080 523c 1869 34bc cbb4 0fbe
000002e0: 936b 063e d381 dc3c 61d7 b63d 859e 6dbd
000002f0: 7a55 ad3d cce9 d23d d593 183d 954d 173e
00000300: 51c2 3a3d 48af f73c 2745 46bc d6f3 86bd
00000310: 2819 1bbd cb0a 6dbe 6d1b 55bd e712 1abe
00000320: 1e74 93be 35b6 4abd df42 bdbd 4b96 b93c
00000330: 16d8 1abd e0a0 7bbe eea7 503d d091 103d
00000340: 9065 d63d bb16 873d 9b8d d0be f182 6abd
00000350: f30a 853d 5602 0cbe 4cc8 d2bd f54a c93c
00000360: 4c22 a13d 3951 d93b 899b b3bc b06b 13be
00000370: 7c92 07be 9952 cf3c 1834 bb3d 5dbb 92bd
00000380: f367 bd3d aab4 aebe fd0a 5cbc a549 dfbc
00000390: c26c 84be 2558 86bc 25dc 573d 2a41 13bc
000003a0: 9406 20bd 25ae d03b 8422 a4bd 2fed 10bd
000003b0: a261 5b3d 250b 20bd 1d98 8fbc 771b 063d
000003c0: 86d9 a03d 659b 5bbd 6529 babc 97f2 d4bd
000003d0: c74f 573b e08a 213d 293c b7bd e3fb 5bbd
000003e0: 4092 0bbe 717d b7bd ac2c d93d 5c8d e7bc
000003f0: d17f a0be 6309 88bc 63c9 eebc 2f02 4e3d
-0.062112052 -0.012387952 -0.05243602 -0.07202016 -0.03735101 -0.2514921 -0.12216228 -0.100624464
-0.05726715 -0.04419554 -0.039519664 -0.023650073 -0.016892342 -0.06400327 0.002205858 0.022353448
0.058195017 0.056237523 0.0137598 -0.30098355 0.08799426 -0.0036227705 -0.22921343 -0.22043003
-0.022649193 0.05478898 -0.16676782 -0.18959242 -0.011502934 0.101680316 0.12598357 0.04704907
-0.19227459 -0.053282868 0.008794888 0.03358679 0.051872388 -0.05072031 0.060016733 -0.05811697
-0.19503076 0.018757183 -0.1908169 -0.014784576 0.09789152 -0.028524188 -0.11218283 -0.16762145
-0.01579997 -0.031960707 -0.050494753 0.058665816 -0.06646777 -0.2485512 -0.22388822 0.040494166
0.1122872 0.11668335 0.01316972 0.055713862 -0.013656911 -0.0020199136 0.008268725 -0.011238169
-0.013638907 -0.13805872 -0.062105346 -0.024524126 -0.037442308 -0.006282332 -0.018309038 0.06474507
-0.00355422 0.09165806 -0.09672346 0.03252887 -0.073224604 -0.2114966 -0.11294846 0.08485527
-0.08530311 -0.12995704 -0.11095582 -0.003446119 0.05307011 0.020461865 -0.044477295 0.00965933
-0.14814875 -0.14006498 0.029401958 -0.14031349 0.04744877 -0.01895461 0.056294028 -0.12944953
-0.04290431 -0.11233416 -0.26874754 0.11909039 -0.11556966 -0.11472653 0.06478642 -0.19117276
0.09069383 0.03653198 -0.07005298 -0.014646209 -0.2239395 0.11460154 -0.059863415 0.1566692
-0.12618676 -0.23853247 0.021978673 0.026110403 -0.07963779 -0.222272 0.08971386 0.055975944
0.06586678 0.15214407 -0.020873053 -0.26578963 -0.08705745 0.07762978 -0.014937949 0.112172514
0.04517436 -0.08959202 0.004524176 0.09068076 -0.03132067 0.06114988 -0.007043815 0.07281119
-0.1125148 0.09515119 0.021753157 0.052378837 0.0015806349 -0.028566467 0.011836088 -0.21516806
-0.015817631 -0.23527141 -0.086575836 -0.014509758 -0.036402535 -0.07680119 -0.018201442 -0.044064518
0.1197389 -0.068554744 -0.08498672 -0.015596884 -0.13272448 -0.04002425 0.104772784 0.012470022
-0.016754547 0.0128552215 -0.17162322 -0.25549394 -0.10231178 0.12156325 -0.085184425 -0.07827604
0.0042246096 -0.0005362337 -0.04674475 -0.16023478 0.09372077 -0.01934031 -0.025160247 -0.14477587
0.12800634 -0.21119833 0.02013635 -0.031573366 0.047854956 0.012848005 -0.011011384 -0.14033811
0.13126974 0.026917374 0.08927799 -0.058012504 0.08463569 0.102984995 0.03725036 0.14775689
0.04559547 0.030234948 -0.012101448 -0.06589477 -0.037865788 -0.23148648 -0.05202811 -0.15046273
-0.28799528 -0.049490172 -0.0924127 0.022654673 -0.03780373 -0.24573088 0.0509414 0.035295308
0.1046859 0.06596132 -0.40733036 -0.05725378 0.06496229 -0.13672766 -0.1029211 0.024571875
0.0786787 0.006631997 -0.02192475 -0.14396548 -0.13239473 0.02530794 0.091407955 -0.07164643
0.09248342 -0.3412221 -0.013430354 -0.027256796 -0.25864226 -0.016399452 0.05270018 -0.008987704
-0.039068773 0.006368416 -0.08014396 -0.035382446 0.053559907 -0.03907313 -0.017528588 0.032741036
0.07853989 -0.053614993 -0.022724817 -0.10397833 0.0032853947 0.039439082 -0.089470215 -0.053707015
-0.13630009 -0.08959473 0.106042236 -0.028265648 -0.31347516 -0.016606038 -0.029148763 0.05029505

encoder.2.bias f4 [128]
00000000: f490 0b3e 016d 7c3e 09a1 553e 493a dd3e
00000010: 7471 2a3e 552d c73d e154 693e 39e0 b13d
00000020: f5cc 723d fbf0 243e 0dc3 1f3e d1c7 a43d
00000030: 3b3b 5b3e 1831 803d c754 c03e ed0c 3a3e
00000040: bd37 463e e584 0b3e aac2 b23e 2e9f 393e
00000050: 01a4 223e 1b72 ab3e 7fc8 2e3e f33d 7e3e
00000060: 459e 353e 91d9 1f3e 96b3 de3d 922c be3d
00000070: 2e70 023e a852 243e fe96 66bd 721a 3f3e
00000080: 617f 223d a37c d83d 21c5 303e 2adf 953e
00000090: f5db 3b3e 639f 763e 477d b73d 3297 0f3e
000000a0: e2fc 8e3d b5b8 fd3d bdca 463e f07e bc3d
000000b0: fbb3 013e 92bd a73d 145e 1d3e 5b64 153e
000000c0: e78a 223e 2038 68bd 4846 193e b777 663e
000000d0: 6c46 a83d 7dab 343e e4fb 413e be72 953e
000000e0: bc3e 873e fe0a 4e3e f927 883e edfa c6bc
000000f0: 1f11 433e 71f5 853e 52e4 a0bd d1e6 323e
00000100: 8331 6d3e 2554 483e d8bc eabc dd8d b1bd
00000110: ceeb 073e e262 1abd 5300 143e ff8e aa3d
00000120: c9b6 ae3e 97b2 913e 7e89 8c3e 652c 533e
00000130: d212 6b3e b7db a13d e4b5 cd3d 1ee9 b2bd
00000140: 4ceb 3e3e 8c95 133e c73d 183e 5077 dc3d
00000150: a64b 273e 90c5 3b3e 6f85 1d3e 2883 893e
00000160: f8e2 f43d 81a9 1c3e a494 233e 619b 393e
00000170: c07c 013e 683e 503e a6dc 893e b062 d43d
00000180: 93a4 923e 4788 633e 6731 5f3e 20b7 7d3e
00000190: f6b7 113e 9f10 203e 1d57 453e e749 8b3e
000001a0: ded5 853e 3ca5 783e cebf f23d fbd3 d53e
000001b0: 949a 9e3d 6ced 0d3c 0a16 0d3e 3122 803e
000001c0: d75f 66bd e24a 523e c33b a93e 4543 0f3e
000001d0: 501f a13e 1488 633e 7473 b43e 1396 bebc
000001e0: 5d8f 213e c7d5 c13e 946e 243e a920 473e
000001f0: 687b 583e 8e30 9e3e c414 3b3e 653a d93e
0.13629514 0.24650957 0.20862211 0.4320853 0.16644841 0.09725443 0.22786285 0.08685345
0.059277494 0.16107552 0.1560175 0.080459245 0.21409313 0.06259364 0.3756468 0.18168993
0.193572 0.13624914 0.34914142 0.18127128 0.15882875 0.33485493 0.1706867 0.24828319
0.17736156 0.15610339 0.10874097 0.09285845 0.12738106 0.16047156 -0.05629634 0.18662432
0.03967226 0.105706476 0.17262699 0.29271823 0.18345626 0.24084239 0.08959442 0.1402252
0.06981827 0.12388746 0.19413276 0.09203899 0.12666313 0.081904545 0.15367919 0.14589064
0.158733 -0.05669415 0.14968216 0.22506605 0.08216557 0.17643543 0.18943745 0.29189104
0.2641505 0.2012138 0.26592997 -0.024289573 0.190495 0.2616382 -0.07856049 0.17470862
0.23163418 0.19563349 -0.0286545 -0.086696364 0.13273546 -0.03769196 0.14453249 0.083280556
0.3412383 0.28456566 0.27448648 0.20622404 0.22956398 0.079032354 0.100444585 -0.0873587
0.18644446 0.14412516 0.14867316 0.107649446 0.16337451 0.18337083 0.15382932 0.26857877
0.11957353 0.15299036 0.1597467 0.18125679 0.12645245 0.20336306 0.26926154 0.10370386
0.28641185 0.22219954 0.21796189 0.24776888 0.14230332 0.1563134 0.19271512 0.2720482
0.2613973 0.24281782 0.1185299 0.4176329 0.07744327 0.008662563 0.13777938 0.25026086
-0.056243744 0.20536378 0.33053407 0.13990505 0.31469202 0.22219878 0.35244334 -0.02326492
0.15777345 0.37858412 0.16057807 0.19446053 0.21140826 0.3089642 0.1826964 0.42427364

encoder.4.weight f4 [64, 128]
00000000: b49a 53bc 7f80 253d 42ea 663d cbc2 803e
00000010: 99d8 373e ab02 48be 5e40 f2bd 393c b5bc
00000020: c499 cd3d b67f 06be 8987 843e 7920 aebd
00000030: 8fb1 dcbc b769 0d3d 9150 9dbc 9424 063d
00000040: 497b 15bc 0e96 0f3c 6654 d7bd db47 7d3d
00000050: 0621 e23d 4681 3c3d 257a 0e3d 4313 dc3d
00000060: 7830 b8bd ebf3 52be ae4f 933b 9c8e 9b3c
00000070: 6b48 65be 8738 a23d d2f5 f7bc d6cd 1fbe
00000080: 606b c43d 767c ecbb 6107 c23a 4c6c 1dbe
00000090: 5c7b ce3c ad9a 18be c944 503d de4c 41be
000000a0: 8104 91bd 9b19 f53b b51f 54be 61a0 ce3d
000000b0: 5fed 903e 713f f1bd 2ba5 06be 2d2e 053c
000000c0: a188 86bd abe3 71bd 827e fe3c e04b 21be
000000d0: 181d 2d3e 1404 be3d e8b8 98bd 8643 99bb
000000e0: 8ed4 033d be65 cdbd cb21 3fbc fe26 0cbd
000000f0: 6e0c 63be 1e28 a7bd bd02 b8bc d338 40bd
00000100: 4604 81be e10c d3bd 30a3 983d 1fb1 64bc
00000110: 674e 283e 13e7 cd3d ea8c a93d 3bf9 cc3c
00000120: 22db 133e fda4 a0bd 6539 0cbd cb68 af3d
00000130: e796 91bd 5206 6c3d 6adf 81be 943c c9bd
00000140: b2c3 e23c 054c d53c ca0e bc3d 1619 c7bc
00000150: b34f 4d3d 3f7c 4cbd 2b4d 54bb 5838 ce3a
00000160: 03a1 3ebd aa6b ce3d cfda 853d 2757 88bd
00000170: 3ff6 3139 b73c 2cbd 9482 14bd 9dd6 dfbd
00000180: 3a2c b93d 5aa2 653d ffb6 3f3e b0d8 cf3c
00000190: 03a4 80be 21de 023d a269 093e 651b 4b3d
000001a0: 8aa2 6abe bd54 1ebd 0da9 413d 86db c7bc
000001b0: a559 62be d066 8f3d 2f21 923d 84a7 81bd
000001c0: b9a4 253c b3ad d9bd 92f5 b9bd d499 12bb
000001d0: 4edd 0fbe 17ed d23d bf0a 873e 4b86 933d
000001e0: 2499 37be 5de0 42be 2319 d93d 3d11 fabd
000001f0: de8a 0bbe ef52 2abe 1f8b 203e 6f96 c43d
00000200: f9fa bfbd 16cf 7dbd a820 0bbc 9d6b 59bd
00000210: 963f bc3d 0a13 bb3d 4ec5 fdbd 75ae 09bd
00000220: 31e8 a2bd 1b15 19be 4050 27be ad0e 0d3e
00000230: f7ef a23d e35c dfbd dd91 80bd 88ec 96bd
00000240: ee89 fdbc 9fb1 323e c37c 2dbc 78e9 ccbd
00000250: 627a 90bc d4b9 133e e952 3b3e a82c 0ebd
00000260: 5576 0f3e 2e60 603e 7d9c 383d 7ee8 4ebd
00000270: 454e 5cbd 02ed 173e 1cf4 083b 52d0 d9bd
00000280: fe45 df3d f782 e73d 5224 f4bc 9e22 a23c
00000290: 2983 a2bd 55ab 783c 94c7 14bd 11b5 213e
000002a0: d09b 0f3d b722 f1bd cf54 a13d 37d9 6a3e
000002b0: 13db a4bc bb64 18be 111b 5ebe a72e db3b
000002c0: 34e7 edbd 231d e33a 768d 0f3e bbc9 823e
000002d0: c9aa ac3d 957e 32be 8de8 d63d 8e7e fabc
000002e0: 56ed 5e3d 064e 00be dc5b 1abe 9832 efbc
000002f0: d357 f73d 49d5 373d f2be fbbc 5727 f83b
00000300: 6a24 febd fb9d bc3d 5e5c 3cbe cb5b 7c3c
00000310: 8305 4f3d 65d4 733d ab54 ffbd f4ca e33d
00000320: b884 6e3e f62a 033c 8a81 25be 7b51 65be
00000330: 4dc3 2c3b 4d51 d93d eb32 e7bd 8ccf 413e
00000340: 745c 883d 74c1 493e 0e55 50be 3734 94bd
00000350: 5c9a 19be 2700 2abe 2f3c 1a3d b7f9 533d
00000360: f01e 92bd 3468 2a3e e0e2 313c b8aa 533b
00000370: 109b edbd 9dfc d93d 353b a7bc fe77 87bb
00000380: a2cd 3d3e 5156 64be 17c1 853d 5c41 823d
00000390: 6e06 513e 73f2 babd 1e7d e73d 81df 1a3e
000003a0: 53ce b1bd 32f5 e33d 2ba4 1b3e 61f5 45bd
000003b0: 529b e23d f89f 98bc 71d1 b0bc 892b eb3c
000003c0: af80 743d 3c5b 3abe 6100 e1bd 4022 dd3b
000003d0: 0ff2 0abe a9b7 893e 9977 a2bd 6d04 123d
000003e0: 73f1 5f3d 5e10 79bc 0f9c 6f3e 2b1a 883e
000003f0: f971 753d 598b 25be 1dc6 55bd 0853 3cbe
-0.012915302 0.040405747 0.05637575 0.25148615 0.17953719 -0.19532268 -0.11828683 -0.022123443
0.10039094 -0.13134655 0.25884655 -0.085022874 -0.026940135 0.034524646 -0.019203456 0.032749727
-0.009123632 0.008763803 -0.105141446 0.061836105 0.11041455 0.046021722 0.034784455 0.107458614
-0.0899362 -0.2060086 0.0044955825 0.0189889 -0.22390907 0.07920938 -0.030268583 -0.15605864
0.09590793 -0.0072169853 0.0014803224 -0.15373343 0.025205307 -0.14902754 0.05084685 -0.18876979
-0.07080937 0.007479859 -0.2071522 0.100891836 0.283061 -0.117796786 -0.13148944 0.008128685
-0.06569029 -0.05905501 0.031066183 -0.157516 0.1690563 0.092781216 -0.07457143 -0.004677239
0.03218513 -0.100291714 -0.011665772 -0.034216873 -0.2217271 -0.081619486 -0.022462243 -0.04692919
-0.25198573 -0.10305191 0.074530005 -0.013958245 0.16436158 0.100538395 0.0827883 0.025021186
0.14439061 -0.07843969 -0.034234423 0.085649095 -0.071088605 0.057623215 -0.25365764 -0.098260075
0.027681205 0.026037225 0.09182508 -0.024303954 0.050124835 -0.049923178 -0.0032394629 0.0015733344
-0.04654027 0.10079129 0.06535875 -0.06657248 0.00016971769 -0.04205009 -0.03625734 -0.10929606
0.09041639 0.056063034 0.18722151 0.02537188 -0.2512513 0.03195012 0.13419202 0.049586672
-0.22913566 -0.03865503 0.04728036 -0.02439667 -0.22104509 0.07002032 0.071352355 -0.06330779
0.010110074 -0.106288336 -0.09080042 -0.002236952 -0.14049265 0.102991275 0.26375386 0.07203349
-0.17929512 -0.190309 0.106004976 -0.12210319 -0.13627192 -0.16633199 0.1567807 0.095990054
-0.09374041 -0.06196507 -0.008491673 -0.053081144 0.091918156 0.09134491 -0.123911485 -0.03361364
-0.07954443 -0.14949457 -0.16339207 0.1377513 0.07955926 -0.109063886 -0.06277821 -0.073693335
-0.030949559 0.1745057 -0.010588828 -0.10005468 -0.017636482 0.14426357 0.18293346 -0.034710556
0.14009984 0.2191169 0.045071114 -0.05051469 -0.05378558 0.14836505 0.0020897454 -0.10635437
0.10902022 0.113042764 -0.029802475 0.019791897 -0.07935173 0.0151775675 -0.036323145 0.15791728
0.035060704 -0.117741995 0.07877504 0.22934423 -0.020123994 -0.14882176 -0.21690013 0.006688911
-0.11616364 0.0017327409 0.14018807 0.25544533 0.08431012 -0.174311 0.10493574 -0.030577924
0.05442556 -0.12529764 -0.15074104 -0.02919893 0.12077298 0.04488114 -0.030730698 0.007573049
-0.12409289 0.0920982 -0.1839461 0.0154027445 0.050542366 0.059528727 -0.12467321 0.111226946
0.23292816 0.008005848 -0.16162696 -0.22394364 0.0026361526 0.1061121 -0.11289009 0.18926829
0.06658259 0.19702703 -0.20344946 -0.07236522 -0.1500029 -0.1660162 0.03765505 0.05175182
-0.07134807 0.16641313 0.010857314 0.0032297801 -0.116018414 0.10643885 -0.020413974 -0.004134177
0.18535474 -0.22298552 0.065309696 0.063601226 0.20412609 -0.09128275 0.11303161 0.15124322
-0.08681931 0.11130752 0.15199344 -0.048329715 0.11064781 -0.018630967 -0.021584244 0.028707283
0.059693035 -0.18198866 -0.109864004 0.0067484677 -0.135689 0.26897934 -0.07932968 0.035648752
0.054673623 -0.015201656 0.23399375 0.26582465 0.059923146 -0.16166438 -0.05219089 -0.18391049

encoder.4.bias f4 [64]
00000000: 589a 503d ee9c 27bd 04d9 3c3e 5b06 903b
00000010: 40df be3c 00ab cb3c ead9 22bd 1497 c0bd
00000020: 238b b83c 1ec6 5c3d a7c5 ab3d c50f 92bd
00000030: 8baa f0bb e700 b6bc b869 c93d 0313 13be
00000040: e202 153d 3478 85bc 4867 b0bd e02b 383b
00000050: 36fc 6b3c 84a5 4fbd 3e48 efbd aa8a 703c
00000060: 96a2 9a3b a091 9b3d f75c e0bd 3bdc 50bd
00000070: 08df 6fbd 6ecd 3cbc d522 08be 107a 423d
00000080: 34e8 06be c150 99bd 0276 953c 2879 bbbc
00000090: f3a4 25be 1cf2 0cba 9a2e 6c3d 34c9 14bd
000000a0: 4a8b 04be 47c2 5ebd f0c0 1abd 7ef9 85bd
000000b0: 8bb3 853d dc18 313c bcc2 ea3c 2d24 083d
000000c0: 700c e9bd 7989 06bc 2fe6 493c d293 b33c
000000d0: 4ec4 6abd 3c44 fabc b108 973d 3708 cebc
000000e0: 7be7 7fbb 2f0e 7b3d 05d1 a93c f24c 1bbd
000000f0: 93e5 143d 0cbb 23bc d8b4 d6bd 29e2 0dbd
0.050928444 -0.040921144 0.1844216 0.004395289 0.023299813 0.024861813 -0.0397586 -0.09403816
0.022527283 0.053899877 0.083873086 -0.07131914 -0.007344549 -0.022217227 0.098346174 -0.14362721
0.036379702 -0.016292669 -0.08613449 0.0028102323 0.0144033935 -0.050694957 -0.11683701 0.014681498
0.004719089 0.07596135 -0.10955232 -0.05099128 -0.05856231 -0.011523588 -0.13294537 0.04747969
-0.13174516 -0.07486106 0.018244747 -0.02288492 -0.16176204 -0.0005376653 0.05766163 -0.036324695
-0.1294376 -0.054384496 -0.037781656 -0.065417275 0.06528386 0.01080915 0.02865731 0.033237625
-0.113793254 -0.008211487 0.012322946 0.021921072 -0.057316117 -0.030550115 0.07374705 -0.025150402
-0.0039047885 0.061292823 0.020729551 -0.037915178 0.03635175 -0.009993326 -0.10483712 -0.03463951
