models/hex2vec_9_poland_50k/model.pt (torch, 909895 bytes, 6 tensors)

encoder.0.weight f4 [256, 725]
0	0xbe7650b2	-0.2405422
1	0x3de116e8	0.10990697
2	0x3c8027c3	0.01564396
3	0xbc5cd0b8	-0.013477497
4	0x3cf862a5	0.030320475
5	0xbc8753a0	-0.016519368
6	0x3d3cbc0e	0.04607778
7	0xbe215ede	-0.15758845
8	0xbd989661	-0.074505575
9	0xbd937b5a	-0.07201262
10	0xbce1d02c	-0.027565084
11	0xbe408d5e	-0.18803927
12	0x3c8f8a27	0.01752193
13	0x3ba5c1d1	0.005058505
14	0x3e11afff	0.14227293
15	0x3d83d81d	0.06437705
16	0x3da8778c	0.08225927
17	0xbd3ec70c	-0.046576545
18	0x3c3b3787	0.011426813
19	0xbd7e1b75	-0.062037904
20	0x3c92f8ce	0.017940905
21	0xbc9130d6	-0.017723482
22	0xbbda109b	-0.0066548116
23	0x3d766a58	0.06016001
24	0xbcb294fb	-0.021799555
25	0x3dc1c123	0.09460666
26	0x3c9d5a9f	0.01920825
27	0x3db11503	0.08646586
28	0xbd023114	-0.031785086
29	0x3e0c1c94	0.13682777
30	0xbccaa288	-0.024735704
31	0x3e08d834	0.13363725
32	0x3d255b9d	0.040370572
33	0x3e3397d2	0.17538384
34	0xbde58782	-0.11207487
35	0xbcc8e129	-0.024521427
36	0x3c84d403	0.016214376
37	0x3d871722	0.06596209
38	0x3dacc5fc	0.084362
39	0x3da15bbd	0.07878826
40	0xbcd68203	-0.026185041
41	0x3c78d0bc	0.015186485
42	0xbccefed6	-0.025268
43	0x3d6cebc7	0.057842042
44	0x3e308bae	0.17240784
45	0x3decc7c7	0.11561542
46	0x3e5ddd9d	0.2166657
47	0xbcd22962	-0.025654498
48	0xbe253f1b	-0.16137354
49	0x3b8685e2	0.0041053155
50	0x3e0bfcb5	0.13670619
51	0xbb9d7916	-0.0048056943
52	0xbdc33804	-0.095321685
53	0x3ca5e223	0.020249432
54	0x3d5cb1b6	0.053880416
55	0xbc753952	-0.0149672795
56	0xbdcd9b8f	-0.10039436
57	0xb93e883e	-0.00018170566
58	0x3d5c8d03	0.053845417
59	0xbb73e4db	-0.0037215266
60	0xbc19f69b	-0.009397174
61	0x3de3f70a	0.11131103
62	0x3d87d98e	0.06633292
63	0xb925980e	-0.00015792271
64	0x3d2b44b9	0.041813586
65	0x3e0117e6	0.12606773
66	0xbe10256b	-0.14076774
67	0xbe0e9ffb	-0.13928215
68	0xbd335818	-0.043785185
69	0x3d7685a2	0.060186036
70	0x3ca3cdc7	0.019995583
71	0xbe184414	-0.1486972
72	0x3ca31977	0.019909604
73	0x3d50e50b	0.050999682
74	0x3be1108c	0.0068684276
75	0xbd136b57	-0.03599104
76	0x3e2ecf23	0.17071204
77	0xbddb4421	-0.10706354
78	0x3dfd341d	0.123634554
79	0x3e8bd5f6	0.27311677
80	0xbd91de2c	-0.07122454
81	0x3e1e8e86	0.15484056
82	0x3ca9c571	0.02072403
83	0xbce13442	-0.027490739
84	0x3849f0af	4.814629e-05
85	0x3d23ac1e	0.039959066
86	0x3d830006	0.06396489
87	0xbd4baebd	-0.04972719
88	0x3d64d0ef	0.055863317
89	0xbd84e0d3	-0.06488194
90	0x3e33df58	0.17565668
91	0xbd78e315	-0.060763437
92	0x3c926df0	0.017874688
93	0x3cf5d1a0	0.030007184
94	0x3d1894e7	0.03725138
95	0xbd9d6f89	-0.07687289
96	0x3d8890ee	0.06668268
97	0xbd784160	-0.06060922
98	0xbd768733	-0.06018753
99	0x3d922328	0.07135612
100	0xbd725610	-0.059164107
101	0xbd132aec	-0.035929605
102	0x3d96dfcc	0.073669046
103	0x3d8e68b9	0.06953568
104	0xba8dec74	-0.0010827915
105	0xbdf6106c	-0.12014851
106	0xbaf0f88f	-0.0018384623
107	0xbd15fea4	-0.036619797
108	0xbcc56b91	-0.024099143
109	0xbd883012	-0.06649794
110	0xbc92c233	-0.017914867
111	0x3d7cf955	0.06176122
112	0x3d9a7fda	0.07543917
113	0x3da2565b	0.07926627
114	0x3d528a75	0.051401574
115	0xbddb20c7	-0.10699611
116	0xbd9422db	-0.07233211
117	0x3dbfd24f	0.09366285
118	0x3e7ee599	0.24892272
119	0xbcd73c5f	-0.026273904
120	0x3ddcc5e7	0.107799344
121	0xbd667954	-0.05626805
122	0x3e02f3ef	0.12788366
123	0x3e46e288	0.19422352
124	0x3d1cb2f9	0.03825662
125	0xbc27bbf0	-0.010237679
126	0xbdf9afdf	-0.12191748
127	0x3c4709fd	0.0121483775
128	0xbe407df6	-0.1879805
129	0xbd40b079	-0.047043297
130	0x3cb75446	0.022379052
131	0x3d178d35	0.0369999
132	0xbd4138e2	-0.04717339
133	0x3dbf9177	0.09353917
134	0xbd1ce5bb	-0.038305026
135	0x3c6064a0	0.013695866
136	0xba1c87fe	-0.0005971192
137	0x3d6bffa5	0.05761685
138	0xbc12cd91	-0.008960144
139	0x3d90ad2f	0.07064282
140	0x3cda57c7	0.026653184
141	0xbd2e6f3f	-0.04258656
142	0xbcf33c63	-0.02969188
143	0x3c2abcab	0.0104209585
144	0x3cca68d5	0.024708191
145	0xbe36b817	-0.17843662
146	0x3d8994c4	0.06717828
147	0x3c4e50b0	0.01259248
148	0xbcad2e50	-0.021140248
149	0x3cd316cf	0.025767712
150	0xbd39da65	-0.045374293
151	0x3d1d198d	0.038354445
152	0x3db676c2	0.0890937
153	0xbd304545	-0.04303481
154	0x3da44f7e	0.080229744
155	0x3c997674	0.01873324
156	0xbdcc8ea4	-0.09988144
157	0x3ca1c1ee	0.019745793
158	0x3e3edcf6	0.18638977
159	0xbdfc4d45	-0.123194255
160	0xbc1624b8	-0.009164028
161	0x3c8683c0	0.016420245
162	0x3bab3e5c	0.0052259397
163	0x3d8da410	0.06916058
164	0x3dd020a8	0.10162479
165	0xbdd02750	-0.10163748
166	0x3d51f38a	0.051257648
167	0x3e2e3cb8	0.1701535
168	0x3d00ae76	0.03141638
169	0x3d9310fe	0.071809754
170	0x3e97509e	0.29553694
171	0xbd01bf52	-0.031676598
172	0x3c2c8963	0.010530802
173	0x3ceb3f24	0.028716631
174	0x3d31633d	0.04330753
175	0x3db169c3	0.086627506
176	0x3dae0987	0.08497911
177	0x3c415617	0.011800311
178	0x3b1c989d	0.0023894676
179	0x3c746389	0.014916309
180	0xbb3895fb	-0.0028165567
181	0xbcab5cf3	-0.020918345
182	0xbd463c8e	-0.048397593
183	0xbdb679ba	-0.08909936
184	0xbd523e0a	-0.051328696
185	0xbd7f1d16	-0.062283598
186	0xbd272e94	-0.040815905
187	0xbc640300	-0.013916731
188	0x3d4944f0	0.04913801
189	0x3e093979	0.1340083
190	0x3b90541d	0.0044045583
191	0xbd1007fe	-0.035163872
192	0x3e065f93	0.13122396
193	0xbd49c712	-0.049262114
194	0x3cee0fd6	0.029060286
195	0xbd07482c	-0.033027813
196	0x3d125037	0.03572103
197	0x3db053cc	0.08609733
198	0x3dabdedc	0.083921164
199	0x3ba95d1c	0.00516857
200	0xbe1aba9e	-0.15110251
201	0x3def1996	0.11674802
202	0xbcc60057	-0.024170084
203	0x3ca020d5	0.019546906
204	0x3d733b49	0.05938271
205	0x3d3bd9df	0.045862075
206	0xbdb1a1d8	-0.08673447
207	0x3e091f92	0.1339095
208	0x3d39f92e	0.045403652
209	0xbddfc65f	-0.10926508
210	0xbcde0986	-0.02710415
211	0x3db2c1a4	0.0872834
212	0x3dc74075	0.09729091
213	0xbc37bff9	-0.011215203
214	0xbd523012	-0.051315375
215	0xbd805387	-0.062659316
216	0xbd5d41a8	-0.054017693
217	0x3df18993	0.11793818
218	0x3c720d79	0.01477372
219	0xbd121c0b	-0.035671275
220	0xbdecaa9c	-0.11555979
221	0x3d8c2cc8	0.06844479
222	0x3e128d72	0.1431177
223	0xbe14ea79	-0.14542569
224	0xbcff0307	-0.031129373
225	0xbe0210f8	-0.12701786
226	0xbcb8b765	-0.022548387
227	0x3dbb6c99	0.09151573
228	0x3b4bdaf4	0.0031105848
229	0x3c2a5785	0.010396843
230	0xba1cebff	-0.0005986094
231	0xbe90cd30	-0.28281546
232	0x3d2b95c5	0.04189088
233	0x3dbda9ca	0.092609
234	0xbcaa29a2	-0.020771805
235	0xbb5d3990	-0.0033756234
236	0x3c60e4ab	0.013726394
237	0xbd85de3a	-0.06536527
238	0xbcc8345e	-0.024439033
239	0x3cc5eb4d	0.024160052
240	0xbe115da1	-0.14195873
241	0x3db57c05	0.088615455
242	0xbcf84114	-0.03030447
243	0xbdb9b0d3	-0.0906693
244	0x3e28bc12	0.16477993
245	0x3d128d14	0.035779074
246	0x3b157036	0.0022802479
247	0x3cd22d74	0.02565644
248	0x3cfac383	0.030610805
249	0x3db896a2	0.09013106
250	0xbd562ea9	-0.052290592
251	0xbd50b8dc	-0.050957546
252	0x3dea7ce3	0.114496015
253	0xbc7276ae	-0.014798803
254	0x3e025069	0.12725987
255	0x3d3983e8	0.04529181

encoder.0.bias f4 [256]
0	0xbcd54f93	-0.02603892
1	0x3deab4d6	0.11460273
2	0x3e85862d	0.2607893
3	0x3ec31a94	0.38106215
4	0x3e16faf5	0.1474417
5	0x3e7bbd77	0.24583994
6	0x3e39b7f5	0.1813658
7	0x3e3b7dc0	0.18309689
8	0x3d3b3fe6	0.045715235
9	0x3e1a8114	0.15088302
10	0x3d064e55	0.032789547
11	0x3e173727	0.14767133
12	0x3e610b99	0.2197708
13	0x3e0c49f9	0.13700093
14	0x3dfebe04	0.12438586
15	0x3d3e1694	0.04640825
16	0x3b39b096	0.0028334013
17	0x3e3fd324	0.18732888
18	0x3dcbeae8	0.09956914
19	0x3e75ff7f	0.24023245
20	0x3eac0203	0.33595285
21	0x3e26b835	0.16281207
22	0x3d53443f	0.051578756
23	0x3e8ec8e6	0.27887648
24	0x3e709526	0.23494396
25	0x3e56ec67	0.20988618
26	0x3e79d5b7	0.24397932
27	0x3e86189e	0.26190656
28	0x3ec46d66	0.38364714
29	0xbf33d1c7	-0.7024197
30	0x3ea11a4d	0.31465378
31	0xba4b45ab	-0.0007754217
32	0x3e91c6aa	0.2847188
33	0x3df7b860	0.120957136
34	0x3e3b0078	0.18261898
35	0x3e89ab13	0.26888332
36	0x3e3d9e6c	0.18517464
37	0xbd828ab1	-0.063741095
38	0x3cec5a74	0.028851725
39	0x3c01c070	0.007919416
40	0x3e04b2cc	0.1295883
41	0xbf2806c9	-0.65635353
42	0x3e9de67b	0.30839905
43	0x3c785b28	0.015158452
44	0x3cb5cd66	0.022192668
45	0x3c14705c	0.009059992
46	0x3e150efe	0.145565
47	0x3e1750f3	0.14776973
48	0x3e9fdb3c	0.3122195
49	0xbaa1f5fd	-0.0012356635
50	0x3c15b0cb	0.009136389
51	0xbe03941e	-0.12849471
52	0xbbd8726d	-0.0066054375
53	0x3e8813b9	0.26577547
54	0x3cfd27c9	0.03090276
55	0x3e3ec475	0.1862963
56	0xbd5caeb4	-0.053877547
57	0x3d83c3cb	0.06433829
58	0x3e8f1241	0.27943614
59	0x3e87741c	0.26455772
60	0xbf0421e8	-0.51614237
61	0x3e35d9d1	0.17758872
62	0xbf3697d2	-0.7132541
63	0xbd4e4206	-0.050355934
64	0x3e107c0f	0.14109825
65	0x3c2227f4	0.009897221
66	0x3e900f8b	0.28136858
67	0xbea699fc	-0.32539356
68	0x3e0d0212	0.13770321
69	0x3eb997a0	0.36248493
70	0x3e885010	0.26623583
71	0x3ecbf12e	0.39832443
72	0x3eb60655	0.35551706
73	0x3c9d89b5	0.019230703
74	0x3e7e0220	0.24805498
75	0x3e2865a9	0.1644503
76	0x3c9f2608	0.019427314
77	0x3e7fde44	0.24987131
78	0x3e9498c0	0.2902279
79	0xbd8d831a	-0.06909771
80	0x3e4ad6a0	0.19808435
81	0x3e9f4da6	0.3111393
82	0x3e5c57b2	0.21517828
83	0x3e710785	0.23538025
84	0x3df68d05	0.12038616
85	0x3d8ce9bc	0.06880519
86	0x3e03c437	0.12867819
87	0xbddd344e	-0.10800992
88	0x3e744d33	0.23857574
89	0xbf174e6e	-0.5910405
90	0x3d64e6f7	0.055884328
91	0x3e8b029f	0.27150437
92	0xbbd652db	-0.006540639
93	0xbf4b2ba8	-0.7936349
94	0x3d29ab24	0.041422978
95	0xbe1c1292	-0.15241459
96	0xbac29e27	-0.0014848158
97	0xbe800e0c	-0.25010717
98	0xbe50f0ff	-0.20404433
99	0x3c83c253	0.016083872
100	0x3d5b5edb	0.053557258
101	0x3e98b313	0.29824123
102	0x3e6077c3	0.21920685
103	0x3e7bba70	0.24582839
104	0x3ddf29dd	0.10896657
105	0xbeaa3401	-0.332428
106	0x3c91c01a	0.017791796
107	0x3e8e0769	0.27740029
108	0xbe70af3a	-0.23504344
109	0x3e24b72d	0.16085501
110	0x3e32daca	0.17466274
111	0x3e265e27	0.16246854
112	0xbddc1b14	-0.10747352
113	0x3eb5583a	0.35418874
114	0xbe148ed9	-0.14507617
115	0xbf369e98	-0.71335745
116	0x3dd2178e	0.10258399
117	0x3e3f311b	0.18671076
118	0x3f0d38ed	0.55164987
119	0x3e39fc88	0.1816274
120	0x3c4075d2	0.011746841
121	0xbd92b966	-0.07164268
122	0xbc27aaf5	-0.01023363
123	0x3e3139f5	0.17307265
124	0x3e1a8abc	0.15091985
125	0x3e9a3ac3	0.30122957
126	0x3eab2a37	0.33430645
127	0xbf0e6f78	-0.5563884
128	0x3db7ef64	0.08981207
129	0x3e7e9fea	0.2486569
130	0x3e92ed95	0.28696886
131	0x3e1dd459	0.15413035
132	0xbdc07e74	-0.09399119
133	0x3c9836be	0.01858079
134	0x3e306da4	0.17229325
135	0x3ea29832	0.3175674
136	0x3e299b89	0.16563238
137	0x3e10be4e	0.14135095
138	0x3e6b420e	0.22974417
139	0x3e6a0cb1	0.22856404
140	0x3e914383	0.2837182
141	0x3e04bb44	0.12962061
142	0xbf0f2d25	-0.5592826
143	0x3e58a02b	0.21154849
144	0x3e877bef	0.2646174
145	0xbeede3dd	-0.46462908
146	0x3ea611a9	0.3243535
147	0x3e888cbf	0.2666988
148	0x3d952b85	0.07283691
149	0x3dab9edf	0.08379912
150	0x3e38c3da	0.18043461
151	0xbf292ffd	-0.6608885
152	0x3d96a2d0	0.07355273
153	0xbf2e9a68	-0.68204355
154	0x3dd83de8	0.10558683
155	0xbe568135	-0.20947726
156	0x3db3dbd1	0.08782161
157	0x3e9d0050	0.306643
158	0xbd3a7c18	-0.0455285
159	0x3d973e83	0.0738497
160	0x3eb5fdff	0.35545346
161	0x3e8a2d19	0.26987532
162	0x3eb79d87	0.3586237
163	0x3e4a6c16	0.19767794
164	0x3e596f7d	0.21233936
165	0x3ebd6533	0.3699127
166	0xbdb37f49	-0.08764512
167	0x3e603716	0.21896014
168	0x3e2c1a24	0.16806847
169	0x3e359dcf	0.1773598
170	0xbc484516	-0.012223503
171	0x3e25e5ac	0.16200894
172	0x3dd9f0fd	0.10641668
173	0x3e009019	0.12554969
174	0xbc9bd87e	-0.01902413
175	0x3e21ce68	0.15801394
176	0xbdb4a6b4	-0.088208586
177	0xbe960ee6	-0.29308242
178	0x3e98e12d	0.29859295
179	0x3d0b4e2f	0.03401011
180	0x3ec7bcc4	0.39011204
181	0x3e8dd04f	0.2769799
182	0xbf036881	-0.51331335
183	0xbef54ec5	-0.4791166
184	0xbbcdf18c	-0.006284898
185	0x3e7da66c	0.24770516
186	0xbb87e9be	-0.0041477373
187	0x3e5450db	0.20733969
188	0x3e3eb070	0.18621993
189	0x3e837942	0.2567845
190	0xbee53562	-0.4476729
191	0x3c27772f	0.010221287
192	0x3e5dac99	0.21647872
193	0xbe8df87b	-0.27728638
194	0x3e68c014	0.22729522
195	0xbf0e6a2a	-0.55630744
196	0x3e5af598	0.21382749
197	0xbe8ac5b7	-0.2710397
198	0x3dd49ec3	0.10381844
199	0x3eeabe8f	0.4584851
200	0x397503d2	0.00023366444
201	0xbbf08ead	-0.007341227
202	0x3e551ec0	0.20812511
203	0xbeb018b1	-0.34393838
204	0x3e38e4d8	0.18056047
205	0xbe0b8e89	-0.13628592
206	0x3c94f811	0.018184694
207	0xbb74931d	-0.0037319132
208	0x3e6476f1	0.22310998
209	0x3e7e9567	0.2486168
210	0xbf38d940	-0.722065
211	0x3e38c145	0.18042476
212	0x3e10af3f	0.14129351
213	0x3e055d8b	0.13023965
214	0x3e8d20f6	0.2756421
215	0x3e2c5af1	0.16831566
216	0xbda4dd2a	-0.08049996
217	0x3e8fc99b	0.280835
218	0xbf2f0d9d	-0.6838015
219	0x3e4e4841	0.2014475
220	0x3ebcf20c	0.36903417
221	0x3e981666	0.2970459
222	0x3e8738da	0.26410562
223	0x3e0d6f7c	0.13812059
224	0x3c13512f	0.008991524
225	0x3df60ad9	0.12013788
226	0x3cb6a4b2	0.02229533
227	0x3e05ac31	0.13053967
228	0x3e92e603	0.2869111
229	0x3e7deb56	0.24796805
230	0x3e51120b	0.20417039
231	0x3e705c58	0.23472726
232	0x3e054d8c	0.13017863
233	0xbe19b568	-0.15010607
234	0xbf63454e	-0.88777626
235	0x3e67d9f7	0.2264174
236	0xbd1e40c8	-0.038636
237	0x3e7c6731	0.2464874
238	0x3e067d1b	0.13133661
239	0xbbc2bc0f	-0.0059428285
240	0xbf8c9b93	-1.0984977
241	0x3cf61872	0.030040953
242	0x3e81fb7e	0.25387186
243	0x3d90c959	0.07069654
244	0x3e8a465d	0.27006808
245	0x3e6d6810	0.23184228
246	0x3e6ae9dc	0.22940773
247	0x3d72d826	0.059288166
248	0xbf7e5766	-0.9935211
249	0xbbe2985a	-0.0069151344
250	0x3e3fac8e	0.18718168
251	0x3ead04e6	0.337928
252	0x3d73375b	0.059378963
253	0x3a144447	0.0005655926
254	0x3e83d5a2	0.25748926
255	0x3ddb5e90	0.10711396

encoder.2.weight f4 [128, 256]
0	0xbb988677	-0.0046547013
1	0xbd84f5e5	-0.06492213
2	0x3cfa25f4	0.030535676
3	0x3ce4ceb6	0.027930599
4	0xbdbfd421	-0.09366632
5	0xbe1a3c00	-0.1506195
6	0xbe018cfc	-0.12651438
7	0x3ca51034	0.020149328
8	0x3ce388af	0.027775137
9	0xbd59cd33	-0.05317421
10	0xbca521d8	-0.02015774
11	0xbd1930c8	-0.037400037
12	0x3d812404	0.063056976
13	0xbce64cab	-0.02811273
14	0xbd239c55	-0.03994401
15	0xbc8abfb4	-0.016937114
16	0xbcbb256b	-0.02284499
17	0xbdba8134	-0.09106675
18	0xbe1a39fc	-0.15061182
19	0x3d990945	0.07472471
20	0x3d71e435	0.059055526
21	0xbad474f6	-0.0016209173
22	0xbd3a6090	-0.045502245
23	0x3e021b12	0.12705639
24	0x3cdf2f64	0.027244277
25	0x3d8989a1	0.06715704
26	0x3d8a8c03	0.06764986
27	0x3db730d8	0.08944863
28	0x3d9ff4f4	0.07810393
29	0xbc035a9a	-0.008017207
30	0x3d4b450e	0.049626403
31	0xbdc585a3	-0.0964463
32	0x3c2580cf	0.010101511
33	0xbcad6b8b	-0.021169445
34	0x3d98634f	0.074408166
35	0xbe0938eb	-0.13400619
36	0x3dafb6fb	0.08579823
37	0xbd0499f9	-0.032373402
38	0xbd6d1220	-0.057878613
39	0xbc53e46a	-0.012932876
40	0xbbdf84a3	-0.0068212315
41	0x3d09901b	0.033584695
42	0x3dc45276	0.09586041
43	0xbcd67991	-0.026181014
44	0xbbff3ad2	-0.0077889943
45	0xbbfa6a4a	-0.007642065
46	0x3d4a49f0	0.04938692
47	0xbda6eec3	-0.08151009
48	0x3da44d34	0.08022538
49	0x3c431705	0.011907344
50	0xbd269455	-0.040668804
51	0xbd07136f	-0.032977518
52	0xbca1f648	-0.019770756
53	0x3d2c3f96	0.042052828
54	0xbd6d4458	-0.057926506
55	0x3d53e132	0.051728435
56	0xbd573f15	-0.052550394
57	0xbdb40db2	-0.08791675
58	0x3cb405a0	0.021975338
59	0xbdbc671f	-0.09199356
60	0x3d8b3ada	0.067983344
61	0x3d21a800	0.039466858
62	0xbdb57bd1	-0.08861507
63	0xbd95abad	-0.07308135
64	0xbc02b6fb	-0.007978196
65	0xbd09c650	-0.03363639
66	0xbe4bde2f	-0.19908975
67	0xbd062710	-0.032752097
68	0x3c86e6d4	0.01646749
69	0xbdd00862	-0.10157849
70	0xbccb2ffe	-0.024803158
71	0x3d9411d6	0.072299644
72	0x3d78d4df	0.060749885
73	0xbdae917d	-0.085238434
74	0xbe2a852d	-0.16652365
75	0xbc5d9d70	-0.013526306
76	0x3d573c43	0.052547704
77	0x3d5d24f9	0.053990338
78	0x3df52575	0.11970035
79	0xbd91614e	-0.070986375
80	0xbd3d9012	-0.046279974
81	0xbd6e7d16	-0.05822476
82	0xbd31b3a6	-0.043384217
83	0x3d1c3fdd	0.038146842
84	0x3c3180b2	0.010833906
85	0xbd5f118f	-0.054460105
86	0x3cb03641	0.021510245
87	0xbd835a0d	-0.0641366
88	0xbcff7758	-0.031184837
89	0xbcea52f9	-0.028604018
90	0xbdde4bc6	-0.108542964
91	0xbe0b68b0	-0.13614154
92	0xbd99d2dc	-0.07510921
93	0xbdc48b24	-0.095968515
94	0xbdbb4081	-0.091431625
95	0x3d0dc3a0	0.03461039
96	0xbd87f993	-0.066393994
97	0xbd84240a	-0.064521864
98	0xbe2406c4	-0.16018206
99	0xbd8a8bb2	-0.06764926
100	0xbcb9c881	-0.022678616
101	0x3d2d1767	0.042258646
102	0x3d927171	0.071505435
103	0x3db39365	0.08768348
104	0xbbc505e3	-0.0060126646
105	0xbd4101da	-0.047120906
106	0xbde90320	-0.11377549
107	0x3d01c810	0.031684935
108	0xbe39dfa8	-0.18151724
109	0x3d915de4	0.07097986
110	0xbd12ddb0	-0.03585595
111	0xbcf8c2a8	-0.030366257
112	0xbda8026d	-0.08203588
113	0x3d5347ba	0.051582076
114	0xbda25d01	-0.07927895
115	0xbc3d8b3a	-0.011568839
116	0x3cb601b1	0.022217603
117	0x3baa254a	0.0051924335
118	0x3d84f725	0.064924516
119	0xbd4799c3	-0.048730623
120	0x3c95c0fe	0.018280502
121	0xbe0f4e31	-0.13994671
122	0xbddd5b14	-0.108083874
123	0xbe0a6b3c	-0.13517469
124	0xbe61d37c	-0.22053331
125	0x3d1a01aa	0.037599243
126	0xbd84665f	-0.06464838
127	0xbdc9b265	-0.09848479
128	0xbcdb7c54	-0.026792683
129	0x3d9db403	0.0770035
130	0xbe35a3a7	-0.1773821
131	0x3c17fe8c	0.009276997
132	0x3d94b16e	0.072604045
133	0xbd473e8d	-0.048643637
134	0xbc8f5cd0	-0.017500311
135	0x3dbd9f07	0.09258848
136	0x3d8d9dfc	0.06914899
137	0xbcc05699	-0.023478793
138	0xbe87d40b	-0.26528963
139	0x3d9af5fd	0.0756645
140	0xbdfcbfbc	-0.12341258
141	0xbe0bf45b	-0.13667433
142	0xba7fb6ad	-0.0009754699
143	0xbe0f36a3	-0.13985686
144	0xbe4e5c5a	-0.20152417
145	0xbc9a46b9	-0.018832551
146	0xbc4da625	-0.012551819
147	0x3d3b8bd0	0.045787632
148	0x3d03a47a	0.03213928
149	0x3cb7e69c	0.02244883
150	0xbdbadd4e	-0.09124242
151	0xbd91c801	-0.07118226
152	0xbccb0ee0	-0.024787366
153	0xbd7f7e3d	-0.06237625
154	0x3d2dcb68	0.04243031
155	0xbd38c061	-0.04510534
156	0xbe25e1eb	-0.16199462
157	0xbdd93646	-0.10606055
158	0xbd9c3f73	-0.076292895
159	0x3c81a11b	0.015823891
160	0xbd7cf71f	-0.06175911
161	0x3db6e23e	0.08929871
162	0xbd334d53	-0.043774914
163	0xbdebbe62	-0.11510922
164	0x3d5d586e	0.05403941
165	0xbd972cfc	-0.07381627
166	0xbe0d7628	-0.13814604
167	0x3d6369d2	0.05552084
168	0xbd5aa846	-0.053383134
169	0x3d695ad3	0.056971382
170	0xbdd78f29	-0.105253525
171	0x3c415a6d	0.011801344
172	0xbe7aa347	-0.24476348
173	0xbd88548a	-0.066567495
174	0xbd8baa45	-0.06819586
175	0x3de3d4c7	0.111245684
176	0xbdfff907	-0.1249867
177	0xbe7cb55b	-0.24678557
178	0x3d2c9847	0.04213741
179	0xbd35faed	-0.044428755
180	0xbccef9ff	-0.025265692
181	0x3c020da3	0.007937822
182	0xbd0c29fd	-0.03421973
183	0x3d831b97	0.06401747
184	0xbd91a250	-0.07111037
185	0xbbc3a000	-0.005970001
186	0x3d0748c4	0.03302838
187	0x3d422834	0.047401622
188	0xbd8e743a	-0.06955762
189	0x3d763f61	0.060119037
190	0xbd277558	-0.040883392
191	0xbcfc6319	-0.030808972
192	0xbd8696df	-0.06571745
193	0xbcc8ad32	-0.024496648
194	0xbdb784ce	-0.08960877
195	0xbdcbbd56	-0.09948222
196	0xbd247663	-0.040151965
197	0x3bec2f7d	0.0072078095
198	0xbb908b04	-0.004411103
199	0xbe1117c7	-0.14169227
200	0xbca296a4	-0.019847222
201	0xbd6ec658	-0.058294624
202	0x3c6c02f2	0.014404999
203	0xbda7b38d	-0.081885435
204	0x3d91cbff	0.07118987
205	0xbd457b2d	-0.048213173
206	0xbd3c7ae2	-0.046015628
207	0xbd8de2d4	-0.0692803
208	0x3c7d246d	0.015450579
209	0x3d9ab93b	0.07554861
210	0xbdb9466e	-0.090466365
211	0xbcbd6e3f	-0.023123858
212	0xbd284f6e	-0.041091375
213	0x3d1c1178	0.038102597
214	0x3dcb0945	0.099138774
215	0xbe1b58c7	-0.15170585
216	0xbdb66e65	-0.08907775
217	0x3cf871e4	0.030327745
218	0xbd550830	-0.05200976
219	0x3dd63e83	0.10461142
220	0x3c18486f	0.009294613
221	0x3da3ca1a	0.07997532
222	0x3ddf6994	0.10908809
223	0x3c8f11be	0.017464515
224	0x3c37e458	0.011223875
225	0x3ce768c9	0.028248208
226	0xbb9855de	-0.004648908
227	0xbe0eded4	-0.1395219
228	0xbe14ffce	-0.14550707
229	0xbcfd21a3	-0.030899828
230	0xbe176b03	-0.14786915
231	0xbd1aa7ba	-0.037757613
232	0xbe14c1bf	-0.14527033
233	0xbe3caf9d	-0.18426366
234	0x3d00633a	0.03134463
235	0xbe3667f6	-0.17813095
236	0xbe76caa1	-0.24100734
237	0x3daccca7	0.08437472
238	0x3c99beac	0.018767677
239	0xbda8f6ba	-0.08250184
240	0xbcd4de3d	-0.025984878
241	0x3c443e88	0.011977799
242	0x3d876352	0.06610741
243	0xbdafe048	-0.085877
244	0x3e0f52a5	0.1399637
245	0x3db2c158	0.08728284
246	0xbe3f6226	-0.18689784
247	0xbd907b0a	-0.07054718
248	0xbda1714c	-0.07882938
249	0xbd3c8d9e	-0.046033494
250	0xbe5710d9	-0.2100252
251	0x3d3ddba2	0.046352036
252	0xbd5e6565	-0.054295916
253	0xbd8fb4da	-0.070169166
254	0x3de3dc66	0.11126022
255	0xbc3fd35e	-0.011708109

encoder.2.bias f4 [128]
0	0x3de5e82a	0.112259224
1	0x3e7788e0	0.24173307
2	0x3c33f8ee	0.010984642
3	0x3e21ba75	0.15793784
4	0x3e64e66c	0.22353524
5	0x3e6a8a1f	0.22904252
6	0x3e228e5e	0.15874621
7	0x3e9b59ba	0.30341893
8	0x3e40bf8f	0.18823074
9	0x3e5c9b31	0.21543576
10	0x3eadd0f7	0.3394849
11	0xbd135ee3	-0.035979163
12	0x3e11b925	0.14230783
13	0x3e5c773c	0.2152986
14	0x3e6ee2b6	0.23328671
15	0x3ea85894	0.3288008
16	0x3e756236	0.23963246
17	0xbc8597ed	-0.016307795
18	0x3e15876e	0.14602444
19	0xbdbdf5e4	-0.092754155
20	0x3e1a182f	0.15048288
21	0x3e43a8bc	0.19107336
22	0x3df7777b	0.12083336
23	0x3dd39739	0.10331578
24	0xbd7507f3	-0.059822034
25	0x3e800133	0.25000915
26	0xbd49b62a	-0.04924599
27	0x3e25b892	0.16183689
28	0x3e2464cb	0.16054074
29	0xbd03b0aa	-0.0321509
30	0xbcb42e74	-0.021994807
31	0xbcb698f4	-0.02228973
32	0xbccf27f9	-0.025287615
33	0xbd0c5815	-0.03426369
34	0x3d64b6b4	0.0558383
35	0x3e61dffa	0.22058097
36	0x3d40b430	0.04704684
37	0x3e35b699	0.17745437
38	0x3e6909be	0.22757623
39	0x3b2d13a6	0.0026409416
40	0x3e23e1f9	0.1600417
41	0x3e031610	0.12801385
42	0x3deeac73	0.11653986
43	0x3e2509e1	0.1611705
44	0x3e296d3d	0.16545577
45	0x3de52694	0.11188999
46	0x3e0359ed	0.12827273
47	0x3e7e1590	0.24812913
48	0x3e0102d2	0.12598732
49	0x3de5a543	0.11213162
50	0x3b828532	0.0039831633
51	0x3e8b9306	0.27260607
52	0x3da82baa	0.08211453
53	0x3d9aedc3	0.07564881
54	0x3df47484	0.11936286
55	0x3df9c4fd	0.12195776
56	0xbda1270e	-0.07868777
57	0x3e633367	0.22187577
58	0x3e2313a5	0.15925463
59	0x3de92a1d	0.113849856
60	0x3e1916b9	0.14950074
61	0xbc9f41f0	-0.019440621
62	0x3e4c7a1e	0.19968459
63	0xbc860f0f	-0.016364602
64	0x3e441bb2	0.1915119
65	0x3e146182	0.14490321
66	0x3e5ec257	0.21753822
67	0x3e8c2c72	0.2737766
68	0x3dfd8576	0.12378971
69	0xbc9d4449	-0.0191976
70	0x3e788690	0.24270082
71	0x3e3c8c7e	0.18412969
72	0x3e530394	0.20606834
73	0x3e0c71b6	0.13715252
74	0x3e30bc39	0.17259301
75	0x3e4341e6	0.19068107
76	0xbcf8f9d1	-0.03039256
77	0x3e1d9bc0	0.15391445
78	0x3e2aeb0c	0.16691226
79	0xbd688910	-0.056771338
80	0x3e41c34c	0.18922156
81	0x3e05613f	0.13025378
82	0x3e447941	0.1918688
83	0x3de387fe	0.11109923
84	0x3e3e7366	0.18598709
85	0x3c2f89a4	0.010713968
86	0x3e6ff9e2	0.23435166
87	0x3e5cfda3	0.2158113
88	0x3e57a4b4	0.21058923
89	0x3e0e4f57	0.13897453
90	0x3e35d1b1	0.17755772
91	0x3e5c1e73	0.2149599
92	0x3e8234fd	0.25431052
93	0x3e24596a	0.16049734
94	0x3dcd2a4c	0.10017833
95	0xbce957d1	-0.028484257
96	0x3ea33beb	0.3188165
97	0xbcef13ef	-0.02918431
98	0x3e74ac57	0.23893867
99	0x3e026235	0.12732776
100	0x3e9681b5	0.29395834
101	0x3dc11832	0.09428443
102	0x3e17ea80	0.14835548
103	0x3e846260	0.25856304
104	0x3cceff5b	0.025268247
105	0x3e65cdba	0.2244176
106	0xbd8bcd2d	-0.068262435
107	0x3dc1871d	0.09449599
108	0x3e3f1708	0.1866113
109	0x3e13e500	0.14442825
110	0x3dfdd8d0	0.12394869
111	0x3b6c310d	0.0036039979
112	0x3e0fc5f5	0.14040358
113	0x3e0b614c	0.13611335
114	0x3e10554f	0.14095043
115	0xbc2ff9dd	-0.010740724
116	0x3e15cc61	0.14628746
117	0x3e8e2d00	0.27768707
118	0x3ddd8f9e	0.108184084
119	0x3da94a9c	0.08266184
120	0x3e7186ed	0.23586626
121	0x3be609f7	0.007020231
122	0x3e48bfba	0.19604388
123	0x3e3d7c3a	0.1850442
124	0x3e264417	0.16236912
125	0x3e1ad8ea	0.15121809
126	0x3d0a62b2	0.03378553
127	0xbd220b17	-0.039561357

encoder.4.weight f4 [64, 128]
0	0x3c502983	0.01270521
1	0x3a2bf7d7	0.00065600633
2	0xbc90a54f	-0.01765695
3	0x3d34b7da	0.044120647
4	0x3d33e972	0.043923803
5	0x3cd40f7f	0.025886295
6	0xbe1f1508	-0.15535367
7	0xbdd37b94	-0.10326305
8	0x3dd4fcb6	0.10399763
9	0x3dfda9a5	0.12385873
10	0x3da7a442	0.081856266
11	0x3d3c9d8c	0.046048686
12	0xbe15954f	-0.14607738
13	0x3d5c83ee	0.053836755
14	0xbc9f7271	-0.01946375
15	0xbd8ede79	-0.06976027
16	0x3da045ba	0.07825799
17	0x3dc0de56	0.09417407
18	0xb99c3307	-0.00029792657
19	0x3dabe431	0.083931334
20	0xbd360d9b	-0.04444657
21	0x3df38335	0.1189026
22	0x3d8a9957	0.067675285
23	0x3cdb1718	0.02674441
24	0xbd5881ee	-0.052858286
25	0x3e0303ca	0.12794414
26	0xbdaa4591	-0.0831405
27	0xbc2eb2d8	-0.010662757
28	0xbdf91d57	-0.12163799
29	0x3d38a7c9	0.045081887
30	0xbd6b625e	-0.057466857
31	0xbd41cbde	-0.047313564
32	0xbe2bcb29	-0.16776718
33	0x3da1f94c	0.07908878
34	0xbd2be16c	-0.041963026
35	0x3e4001a2	0.18750623
36	0xbb180294	-0.0023194896
37	0x3d86e3d1	0.06586421
38	0xbdb1ce97	-0.08681982
39	0x3da562b3	0.08075466
40	0x3cc106a4	0.023562737
41	0x3d9852e2	0.07437684
42	0x3d65f1bd	0.056138743
43	0x3d7b176d	0.061301637
44	0x3dbfe0fb	0.093690835
45	0xbd33320f	-0.04374891
46	0xbe0205f5	-0.12697585
47	0x3e1c87aa	0.15286127
48	0xbd8bc44e	-0.068245515
49	0x3d6fcb32	0.05854339
50	0xbdc32010	-0.095276
51	0x3c8be49c	0.017076783
52	0x3d0e2b75	0.034709413
53	0xbe0a712f	-0.13519739
54	0x3dbc464e	0.09193097
55	0x3d520a0a	0.051279105
56	0x3dd1ab1c	0.10237715
57	0xbdf42a2d	-0.11922107
58	0x3c531737	0.012883953
59	0x3d8d7aac	0.069081634
60	0xbd8756f5	-0.066083826
61	0xbd0dd1a1	-0.034623746
62	0xbe62032c	-0.22071522
63	0xbc84afab	-0.016197046
64	0x3c5f109b	0.013614799
65	0x3cd2163f	0.025645373
66	0x3d2cbcb2	0.04217214
67	0xbdc9dbf5	-0.098564066
68	0x3c8a476b	0.016879758
69	0x3d6a9c69	0.05727807
70	0xbdae1373	-0.084998034
71	0x3e1c30ef	0.15253042
72	0xbe19c87f	-0.1501789
73	0xbd202e17	-0.039106455
74	0xbe07cfc6	-0.13262853
75	0xbe24a421	-0.16078235
76	0x3d9eae9d	0.077481486
77	0x3d738fc5	0.05946328
78	0xbd355d08	-0.044278175
79	0x3cd52828	0.026020125
80	0xbdbc8218	-0.09204501
81	0x3d877f3b	0.06616064
82	0x3c2f9c8a	0.010718474
83	0xbd998fce	-0.07498132
84	0xbdb0fc42	-0.08641864
85	0x3e4322f7	0.19056307
86	0x3b5f333c	0.0034057638
87	0xbd1bfddc	-0.038083896
88	0xbe1cae81	-0.15300943
89	0x3dd33eca	0.103147104
90	0x3e441bfd	0.19151302
91	0xbe010097	-0.12597881
92	0xbd7380f5	-0.059449155
93	0xbd42d8a5	-0.04756989
94	0xbca126be	-0.019671794
95	0x3d8a80ce	0.06762849
96	0xbdb6bcaf	-0.08922707
97	0x3c206922	0.009790691
98	0x3e0815ab	0.13289516
99	0xbdfb1e5b	-0.12261649
100	0x3cc735fa	0.02431773
101	0xbe038a94	-0.12845832
102	0x3b5b4c22	0.0033462127
103	0xbdd3068d	-0.10303984
104	0x3d73b6ba	0.059500434
105	0x3db841f3	0.08996954
106	0x3d327f9b	0.043578725
107	0x3d10e406	0.03537371
108	0xbced99e2	-0.029004041
109	0x3d71d89c	0.059044465
110	0xbd3c872a	-0.04602734
111	0xbd250e66	-0.040296935
112	0xbd7d2fb3	-0.061813068
113	0xbe2c41b1	-0.16821934
114	0xbc584809	-0.013200768
115	0x3e22da3c	0.15903562
116	0xbc5e4f71	-0.013568745
117	0x3db93310	0.090429425
118	0xbcf4adb1	-0.029867979
119	0xbde876f6	-0.11350815
120	0x3d892185	0.066958465
121	0x3d7c60da	0.061615802
122	0x3c6614ee	0.014043076
123	0x3e129f79	0.14318646
124	0x3aea142c	0.0017858795
125	0x3c1eabe3	0.009684536
126	0x3d4fa85a	0.050697662
127	0x3d509c60	0.05093038
128	0x3e372aeb	0.17887466
129	0xbcb77bf7	-0.022397978
130	0x3d8dcdfd	0.06924055
131	0xbda0a7b4	-0.07844487
132	0xbe1da595	-0.15395196
133	0x3d9b47bf	0.07582044
134	0x3de0e795	0.10981671
135	0x3c415afc	0.0118014775
136	0xbdaeaff4	-0.08529654
137	0xbc98fd43	-0.018675452
138	0x3d2cc41c	0.042179212
139	0xbbe5e4f7	-0.00701582
140	0x3dec48e9	0.11537344
141	0x3e0217df	0.12704419
142	0xbca1c465	-0.019746969
143	0xbd95adcc	-0.0730854
144	0xbdad3ec4	-0.08459237
145	0xbc1aa739	-0.009439283
146	0xbcba73a6	-0.022760224
147	0xbddfbd17	-0.10924738
148	0x3d410cda	0.047131397
149	0xbd72e51d	-0.05930053
150	0x3dbd3a6f	0.09239661
151	0xbd2afefe	-0.041747086
152	0xbc92226c	-0.01783868
153	0xbb396fa4	-0.0028295303
154	0x3ccda3ac	0.025102459
155	0xbc3d37d3	-0.011548954
156	0xbd9139be	-0.070910916
157	0x3d0a7066	0.033798598
158	0x3d3dc205	0.04632761
159	0xbc991f0d	-0.018691564
160	0xbdf018b1	-0.117234595
161	0x3d66c1de	0.05633723
162	0x3e392802	0.18081668
163	0x3e6ab8bc	0.22922033
164	0x3e0b4afc	0.13602823
165	0x3ca9a15e	0.020706829
166	0xbc0b41f5	-0.008499612
167	0x3ca612ca	0.020272631
168	0x3d270c7e	0.040783398
169	0xbca50c26	-0.020147394
170	0xbdbd63db	-0.092475615
171	0x3dbc2b9c	0.09188005
172	0x3db9b253	0.09067216
173	0xbd2fcd71	-0.042920534
174	0x3babf672	0.0052478844
175	0xbcadf91e	-0.021236952
176	0xbdad5436	-0.084633276
177	0xbda089ee	-0.07838808
178	0x3ddf6927	0.10908728
179	0x3df54bed	0.11977372
180	0xbcc09951	-0.023510607
181	0x3d91924c	0.07107982
182	0x3e330047	0.17480575
183	0x3e2457bf	0.16049097
184	0xbd1d7e03	-0.038450252
185	0xbd8d23d1	-0.06891597
186	0x3d844f5a	0.064604476
187	0xba7cb086	-0.0009639341
188	0x3c2cdcaa	0.010550657
189	0x3ddf1b0c	0.10893831
190	0xbde310c1	-0.1108718
191	0x3c2d451b	0.010575558
192	0xbe2871ef	-0.16449712
193	0x3e0b09c6	0.13577947
194	0xbdaef07d	-0.08541963
195	0x3b440df0	0.0029915534
196	0x3dcbea95	0.09956852
197	0x3c9e6b3b	0.01933824
198	0xbe3114a4	-0.1729303
199	0x3e14d125	0.14532907
200	0xbcb268a3	-0.02177841
201	0xbe380a4e	-0.17972681
202	0x3c58981c	0.013219859
203	0x3d404fc4	0.04695107
204	0xbcfbc9e4	-0.030735917
205	0x3dc14c41	0.094383724
206	0xbc856452	-0.016283188
207	0x3c294b91	0.010332958
208	0xbd318ee5	-0.043349165
209	0xbdc45a45	-0.0958753
210	0xbde38e79	-0.11111159
211	0xbe4d5341	-0.2005129
212	0xbdc5b699	-0.09653968
213	0xbd90100e	-0.07034312
214	0x3e1c0ab7	0.15238462
215	0x3d7369d3	0.059427094
216	0xbc92ee5c	-0.017935924
217	0xbde0d484	-0.10978034
218	0x3de6bc2a	0.11266358
219	0x3d17bfad	0.03704803
220	0x3de59825	0.1121066
221	0xbca119d9	-0.019665645
222	0xbdc1a68f	-0.09455597
223	0xbd61c022	-0.055114873
224	0x3ceadfa9	0.028671103
225	0x3c8bfda9	0.017088728
226	0xbdd24adc	-0.102681845
227	0xbd37c5fd	-0.04486655
228	0x3d53b48d	0.05168586
229	0x3d73ddf1	0.05953783
230	0x3df953ef	0.12174212
231	0x3da3f09b	0.08004876
232	0xbbca8348	-0.0061802007
233	0xbd3fe62c	-0.04685037
234	0x3c74d6cc	0.01494379
235	0x3c6e706a	0.014553169
236	0x3d7cbc55	0.061703045
237	0x3df8183e	0.12113999
238	0x3e63acb7	0.22233854
239	0xbd215321	-0.03938592
240	0x3e616a97	0.22013317
241	0xbdae557b	-0.08512398
242	0xbd0d5352	-0.03450329
243	0xbde728db	-0.112870894
244	0xbc0f4aae	-0.008745832
245	0x3e00a1c5	0.1256171
246	0xbe3721b6	-0.17883953
247	0xbdcb4a5f	-0.099262945
248	0xbd5f9d19	-0.05459318
249	0x3d617b0e	0.055048995
250	0x3d814bba	0.06313272
251	0xbdabc53e	-0.0838723
252	0xbd1f07af	-0.038825687
253	0x3e06da9f	0.13169335
254	0xbe167462	-0.14692834
255	0xbd8dce88	-0.06924158

encoder.4.bias f4 [64]
0	0x3dfd5b8b	0.12370976
1	0x3bf0b646	0.0073459474
2	0xbda68dc5	-0.08132509
3	0x3d85a3e0	0.06525397
4	0x3e0120ee	0.12610218
5	0xbc0b7740	-0.008512318
6	0x3d03e201	0.032197956
7	0x3e41e72b	0.1893584
8	0x3da9661d	0.0827143
9	0x3defe69d	0.11713908
10	0x3e0da5e8	0.1383282
11	0x3dfe7a18	0.12425631
12	0xbd9b8523	-0.07593753
13	0xbce4f57c	-0.027949087
14	0x3e5f3807	0.21798716
15	0x3e5c4ada	0.21512929
16	0xbe107c94	-0.14110023
17	0xbb58a51d	-0.00330574
18	0x3c9ef06f	0.019401757
19	0x3dce567d	0.1007509
20	0xbd26b93b	-0.040703993
21	0x3da56ed5	0.0807778
22	0x3d5cd28f	0.05391174
23	0x3bd069b2	0.006360256
24	0x3d087be5	0.03332128
25	0x3e1621bf	0.1466131
26	0xbcb419ac	-0.021984898
27	0x3da21401	0.07913972
28	0xbe357b88	-0.17722905
29	0xbe13f896	-0.14450297
30	0xbdd27e4c	-0.102779955
31	0x3c650f47	0.013980693
32	0x3cac9e1d	0.021071488
33	0x3dfbdf17	0.122984104
34	0x3da63932	0.08116378
35	0x3e31eda4	0.17375809
36	0xbcc63dd1	-0.024199398
37	0x3dc10398	0.094245136
38	0xbd67c541	-0.0565846
39	0x3dedc67f	0.11610126
40	0xbc0c3ccf	-0.00855942
41	0xbd905f37	-0.07049411
42	0x3d3122ef	0.043246206
43	0x3c70d9ee	0.014700396
44	0xbd6e1361	-0.05812395
45	0xbd9df974	-0.07713595
46	0xbe0deac5	-0.13859089
47	0x3d88d54d	0.06681309
48	0x3d9429d1	0.07234538
49	0x3d1f9e1c	0.038969144
50	0x3cc01025	0.023445198
51	0x3d228b69	0.039683733
52	0x3e0c20eb	0.13684432
53	0xbd914ec3	-0.07095101
54	0xbd93f2fb	-0.07224079
55	0x3d7850c5	0.060623903
56	0x3dbb4305	0.09143642
57	0x3d911ce5	0.07085589
58	0xbd5780d5	-0.0526131
59	0xbd92fd15	-0.07177178
60	0x3e15b4da	0.1461977
61	0xbdec5f9f	-0.11541676
62	0xbda15ac3	-0.078786395
63	0x3be9cece	0.0071352487
